Game/game.pth (torch, 17208 bytes, 4 tensors)

linear1.weight f4 [256, 11]
0	0x3cce1a4b	0.025159022
1	0x3d7e235d	0.062045444
2	0x3e2058a6	0.15658817
3	0x3e0df727	0.13863812
4	0x3d8f2f83	0.06991484
5	0x3c00d35c	0.007862892
6	0x3ce509fc	0.027958862
7	0x3e63381b	0.22189371
8	0xbd0b37cc	-0.03398876
9	0xbe22e0bb	-0.1590604
10	0x3e5d5406	0.21614084
11	0xbe13d4d0	-0.1443665
12	0xbe0590ee	-0.13043568
13	0x3e6f4751	0.23367049
14	0x3df72d8f	0.120692365
15	0x3e3ca3eb	0.18421905
16	0xbe883bc3	-0.26608095
17	0x3dbb7d4c	0.09154758
18	0xbe3e70e8	-0.18597758
19	0x3d6e0aee	0.058115892
20	0xbe20270d	-0.15639897
21	0x3ce42a30	0.027852148
22	0xbd201a77	-0.03908774
23	0xbdd93ee4	-0.106076986
24	0xbd8187e8	-0.0632475
25	0x3d35b414	0.04436119
26	0xbe9aac63	-0.30209646
27	0x3ca92f77	0.020652516
28	0xbe9bfb52	-0.3046518
29	0xbd5db646	-0.054128908
30	0xbdf4ef90	-0.119597554
31	0xbd8d6a2d	-0.06905017
32	0x3e6f796b	0.23386161
33	0x3e78ee54	0.24309665
34	0xbe6514e0	-0.22371244
35	0xbdb80a3f	-0.08986329
36	0x3e3b9296	0.18317637
37	0xbdebd426	-0.115150735
38	0xbe0605aa	-0.13088098
39	0x3de699b0	0.11259782
40	0x3d56163d	0.0522673
41	0x3e4caca1	0.19987728
42	0xbc0c374c	-0.008558106
43	0xbe97cdd7	-0.2964923
44	0x3e9c288f	0.30499694
45	0xbd6ebdcf	-0.058286484
46	0x3d13cfa5	0.036086697
47	0x3daa943c	0.08329055
48	0x3e6643b3	0.22486763
49	0x3e80aa4a	0.2512992
50	0x3e83d202	0.2574616
51	0xbe52fa2c	-0.20603245
52	0xbde3cf05	-0.1112347
53	0x3e85e158	0.26148486
54	0xbe58cdf9	-0.21172322
55	0x3ea32f3a	0.31871969
56	0x3e8ebe23	0.27879438
57	0xbe9472c8	-0.2899382
58	0x3d6408d7	0.055672493
59	0x3e12fbe2	0.14353898
60	0xbaff73d2	-0.0019489473
61	0x3cf3c1f7	0.029755576
62	0x3d638155	0.055543263
63	0xbd2757c8	-0.0408552
64	0x3c575f9a	0.013145352
65	0x3e2b3f10	0.16723275
66	0xbdd500f4	-0.104005724
67	0x3e0201ce	0.12696001
68	0x3e6680da	0.2251009
69	0x3e2c1088	0.16803181
70	0x3e0fb3ba	0.14033404
71	0x3dbbf338	0.0917725
72	0xbe631db4	-0.221793
73	0xbe8cf8e9	-0.27533653
74	0xbd56335b	-0.05229507
75	0xbe76652b	-0.2406203
76	0x3e1a99bc	0.15097708
77	0x3e5e66d7	0.21718918
78	0x3ec12ded	0.3773035
79	0x3e827ce2	0.25485903
80	0x3df98726	0.12183981
81	0xbe099da1	-0.13439037
82	0xbe273a7d	-0.16330905
83	0x3ead64fd	0.3386611
84	0x3e31fbb9	0.17381181
85	0x3e048d34	0.1294449
86	0xbdca9892	-0.09892382
87	0x3d05bc1d	0.032650102
88	0xbeb6aa42	-0.3567677
89	0x3e332788	0.17495549
90	0xbe887e6d	-0.26658955
91	0x3d18bf98	0.037292093
92	0x3ea04e4d	0.3130974
93	0x3b8ff01c	0.004392637
94	0x3e22a691	0.15883853
95	0xbbc57bfe	-0.006026744
96	0x3e9edd75	0.31028333
97	0x3cc0cfb1	0.023536535
98	0x3e380550	0.17970777
99	0x3e6ade92	0.22936466
100	0x3cf5b882	0.029995207
101	0x3e8e4604	0.27787793
102	0x3dfa3a39	0.12218136
103	0xbe5c1df9	-0.21495809
104	0xbe968444	-0.29397786
105	0x3e53cb37	0.20682989
106	0x3e8021a4	0.25025666
107	0x3e99740d	0.29971352
108	0xbd9e6362	-0.077337995
109	0xbe7df408	-0.24800122
110	0x3eab39c5	0.33442512
111	0xbe81e74b	-0.25371775
112	0x3d253639	0.040334914
113	0x3d901b18	0.07036418
114	0x3e1d7525	0.15376718
115	0x3de34e74	0.11098948
116	0xbd5d3719	-0.054007623
117	0xbe7c5018	-0.24639928
118	0x3e6a56be	0.22884652
119	0x3d48f49c	0.049061403
120	0xbdc9e827	-0.09858733
121	0xbe6208fd	-0.22073741
122	0x3e8431e8	0.25819325
123	0x3e3c81a5	0.1840883
124	0x3e0970f4	0.13421994
125	0x3c0146b1	0.007890389
126	0xbe647ea0	-0.22313929
127	0x3e8b2554	0.27176917
128	0x3e872e02	0.2640229
129	0xbe0d79f8	-0.13816059
130	0x3d3114c0	0.04323268
131	0xbd0bf1f1	-0.03416628
132	0xbd149131	-0.036271278
133	0x3ec22470	0.37918425
134	0xbdc0e7cc	-0.09419212
135	0xbe17a8b7	-0.14810453
136	0x3dabd580	0.08390331
137	0x3e8d4a28	0.2759564
138	0xbcecec61	-0.028921308
139	0xbdaacfe2	-0.08340432
140	0xbda0886f	-0.07838523
141	0xbbbfd50a	-0.0058542537
142	0xbe13597d	-0.14389606
143	0xbe301d76	-0.17198738
144	0x3e802f22	0.2503596
145	0xbdfaae86	-0.12240319
146	0xbe8ce33d	-0.2751712
147	0x3dbc932d	0.09207759
148	0x3d0581d6	0.032594524
149	0xbd48badf	-0.04900634
150	0xbe9efe38	-0.3105333
151	0x3c397964	0.011320446
152	0x3e0f5c52	0.14000061
153	0x3cabff07	0.02099563
154	0xbe32fb7f	-0.1747875
155	0x3e4ad6bc	0.19808477
156	0x3d8d0f1c	0.068876475
157	0x3de2afed	0.110687114
158	0x3e8f32c2	0.27968413
159	0xbddd8cdf	-0.10817885
160	0x3da9b22b	0.08285936
161	0xbe26610f	-0.16247962
162	0x3caca2ce	0.021073725
163	0xbe035bc2	-0.12827972
164	0xbd581ff5	-0.05276485
165	0xbde0b624	-0.109722406
166	0xbe8dcebc	-0.27696788
167	0xbe854fb2	-0.26037365
168	0xbe3b47cd	-0.18289109
169	0x3db97b5b	0.09056731
170	0x3da2ed36	0.07955401
171	0x3e73fc9d	0.23826833
172	0x3d5d38c8	0.05400923
173	0xbe921479	-0.28531244
174	0xbe687735	-0.22701724
175	0xbccca605	-0.024981508
176	0xbe06bb33	-0.13157348
177	0x3d2cb4fe	0.042164795
178	0xbe94661b	-0.2898415
179	0x3e804e34	0.25059664
180	0xbe78d560	-0.24300146
181	0x3e8e73d1	0.27822736
182	0xbe2853ed	-0.16438265
183	0xbe28d82c	-0.16488713
184	0xbe17245e	-0.14759967
185	0x3d384a1c	0.04499255
186	0xbe5c9bc8	-0.21543801
187	0x3cdab099	0.026695536
188	0x3da905b7	0.08253043
189	0xbe2564f6	-0.16151795
190	0xbe701cef	-0.23448537
191	0xbe6a9850	-0.22909665
192	0xbd8218b8	-0.06352371
193	0xbe4e1229	-0.20124115
194	0xbd7c01b6	-0.06152507
195	0xbeb6e4a4	-0.35721314
196	0x3aac9b62	0.0013168866
197	0x3e598524	0.21242195
198	0xbddee636	-0.10883753
199	0x3e7f01c4	0.24903017
200	0xbcbc6e80	-0.02300191
201	0xbdc45f4a	-0.095884874
202	0x3dc7108a	0.097199515
203	0xbdf28ada	-0.1184289
204	0x3e1f1bfd	0.1553802
205	0xbd772a71	-0.06034321
206	0xbe23eda9	-0.16008629
207	0xbe900db6	-0.2813546
208	0xbe14adfe	-0.14519498
209	0x3ead94fd	0.33902732
210	0xbe32b903	-0.17453389
211	0xbe51c5d4	-0.20485622
212	0x3e70b440	0.2350626
213	0x3db3ffa5	0.08788995
214	0xba9e1036	-0.0012059275
215	0xbe18a719	-0.14907493
216	0xbe9afe4b	-0.30272135
217	0xbd702572	-0.05862946
218	0xbe4bead8	-0.19913805
219	0x3e4a5f7c	0.19762987
220	0x3d156be3	0.036479842
221	0xbd48ea14	-0.04905136
222	0xbe6382b1	-0.22217824
223	0x3dc0f5ed	0.094219066
224	0x3e81ef07	0.25377676
225	0x3de0723b	0.10959288
226	0xbe1f7457	-0.15571724
227	0x3df0fdc6	0.117671534
228	0xbda30adf	-0.07961058
229	0x3e61d858	0.22055185
230	0x3b439c8b	0.0029847946
231	0xbe16a433	-0.14711075
232	0x3dd605c7	0.10450321
233	0xbe7529c1	-0.23941709
234	0x3e062ab1	0.13102223
235	0xbdc10aaa	-0.09425862
236	0xbaa39a51	-0.0012481903
237	0x3e2e57e8	0.17025721
238	0x3dc193d1	0.09452022
239	0xbe3180ac	-0.1733424
240	0xbd78674e	-0.060645394
241	0xbe7cff31	-0.24706723
242	0x3e01c1de	0.1267161
243	0xbe928a78	-0.28621268
244	0xbdfc8646	-0.12330298
245	0xbe212b81	-0.15739252
246	0xbde230b5	-0.110444464
247	0xbe5f9427	-0.2183386
248	0x3e836a18	0.2566688
249	0x3d083fe9	0.033264074
250	0x3dc470b3	0.09591808
251	0xbe3d04ad	-0.18458815
252	0x3eaef81b	0.34173664
253	0x3e38cde3	0.1804729
254	0x3e4e74a8	0.20161688
255	0x3d4dccd1	0.050244156

linear1.bias f4 [256]
0	0x3e490e56	0.19634375
1	0x3c69edf7	0.014277927
2	0x3dd2a3b6	0.10285132
3	0xbe49eb70	-0.19718719
4	0x3db3ed8a	0.08785541
5	0x3e6c7bcd	0.23094101
6	0x3cd2e99a	0.025746156
7	0x3e8ab1e2	0.2708884
8	0xbe39ca93	-0.18143682
9	0xbe21afa4	-0.15789658
10	0xbe6cd762	-0.23129037
11	0x3e477b3f	0.19480608
12	0x3e55e5b7	0.2088841
13	0xbdab7f2a	-0.08373864
14	0x3e8cca27	0.2749798
15	0xbe7dd557	-0.24788414
16	0xbd0cb4b4	-0.03435202
17	0x3e58c4e7	0.21168862
18	0xbdd48058	-0.10376042
19	0xbd8657f2	-0.06559743
20	0x3e253541	0.16133596
21	0xbdc241e8	-0.09485227
22	0x3d6f6910	0.058449805
23	0x3e9e4b1d	0.30916682
24	0xbdbd2a77	-0.09236615
25	0x3d89b7b3	0.06724491
26	0xbdee50a6	-0.11636476
27	0xbe859756	-0.26092023
28	0xbe511f9b	-0.20422213
29	0x3d9d6c0c	0.07686624
30	0x3cc28468	0.023744777
31	0xbd251d08	-0.04031089
32	0x3e43e5b0	0.19130588
33	0xbe9f907b	-0.31164917
34	0xbe9b8e36	-0.30381936
35	0x3e8277d6	0.25482053
36	0x3e09472d	0.13406058
37	0x3da1b161	0.078951605
38	0xbe0466c0	-0.12929821
39	0x3e8c1472	0.2735935
40	0xbe4ae442	-0.19813636
41	0xbe265f59	-0.1624731
42	0x3e18508e	0.14874479
43	0xbe5619c5	-0.20908268
44	0xbe1161a6	-0.14197406
45	0xbe8e4829	-0.2778943
46	0x3e3c645b	0.18397658
47	0x3d42c4af	0.047550853
48	0x3dd611fc	0.10452649
49	0xbddece1d	-0.10879157
50	0xbdf43410	-0.11923993
51	0x3e788cb1	0.2427242
52	0xbc7e35bf	-0.015515744
53	0x3e2d2c24	0.1691137
54	0x3e3edc06	0.1863862
55	0xbcac19ea	-0.02100845
56	0xbcd863db	-0.026414802
57	0x3e1108d8	0.1416353
58	0x3da9b16c	0.08285794
59	0x3d3d2dbc	0.046186194
60	0x3e455d16	0.1927379
61	0xbd83f55f	-0.06443285
62	0xbe0f141a	-0.13972512
63	0x3eb316f3	0.34978446
64	0xbe3a5dbd	-0.18199821
65	0x3eab49c3	0.33454713
66	0x3dca470a	0.09876831
67	0xbe2ea07b	-0.17053406
68	0xbdf13713	-0.11778083
69	0x3da2213a	0.07916494
70	0x3dbae284	0.09125236
71	0xbe2120b5	-0.15735133
72	0x3e8419a1	0.25800803
73	0x3d891bb3	0.06694736
74	0x3e933955	0.28754678
75	0x3ea21877	0.3165929
76	0x3b6caa10	0.0036112107
77	0x3e1972ec	0.14985245
78	0x3e8fb1cb	0.28065333
79	0xbcc7fed6	-0.024413507
80	0xbd5778e1	-0.052605513
81	0xbdfc1826	-0.123092934
82	0xbd5f4f79	-0.05451915
83	0xbe33cb0b	-0.17557923
84	0xbdd4032d	-0.10352168
85	0xbe12f637	-0.14351736
86	0x3e74f1ca	0.2392036
87	0xbe02c8b3	-0.12771873
88	0xbeab6378	-0.33474326
89	0xbe4dfc4f	-0.2011578
90	0xbe84281c	-0.2581185
91	0xbe14fa8c	-0.14548701
92	0xbdb446b2	-0.088025466
93	0x3e51b7a5	0.20480211
94	0x3e124add	0.1428637
95	0xbe4c3139	-0.19940652
96	0xbe835269	-0.2564881
97	0xbe90ee38	-0.28306746
98	0x3e0dcd28	0.13847792
99	0x3da5e667	0.081005864
100	0x3e9b0813	0.30279598
101	0x3e967348	0.29384828
102	0x3e83c5a1	0.25736716
103	0x3e832d87	0.25620672
104	0x3e4567bc	0.19277853
105	0x3de9ae21	0.114101656
106	0x3eb27a8d	0.34859124
107	0xbe28ec3c	-0.16496366
108	0x3e276d48	0.16350281
109	0xbe235277	-0.15949427
110	0x3e788be0	0.24272108
111	0x3d86bd7b	0.06579109
112	0xbe27a350	-0.16370893
113	0xbd543a6c	-0.051813528
114	0xbdce65be	-0.100779995
115	0xbe85a7ba	-0.26104528
116	0xbea34e3f	-0.31895635
117	0xbeafbcca	-0.34323722
118	0x3e307bcf	0.17234729
119	0xbd7369ac	-0.05942695
120	0xbe95c262	-0.29249865
121	0x3db734b3	0.089455985
122	0x3b098764	0.002098524
123	0x3e1f644c	0.15565604
124	0x3ea7d9ce	0.3278336
125	0xbe30f843	-0.17282204
126	0x3e7eb864	0.24875027
127	0x3dae0987	0.08497911
128	0x3e97b6ec	0.29631746
129	0x3c8ba389	0.017045753
130	0xbe1dd04f	-0.15411495
131	0x3e47a1fd	0.19495387
132	0x3d854ce8	0.06508809
133	0x3e20ba86	0.15696153
134	0xbea28f1e	-0.31749815
135	0x3e5da119	0.21643485
136	0x3e45ed51	0.1932881
137	0x3e8913c1	0.26772884
138	0xbd1f25cc	-0.038854405
139	0x3dafd96a	0.0858639
140	0x3e8c4907	0.27399465
141	0x3d444755	0.04791959
142	0xbeabb336	-0.33535165
143	0x3e8a5de1	0.2702475
144	0x3e06c486	0.13160905
145	0x3d1f1139	0.038834784
146	0xbd8a3c53	-0.06749787
147	0xbe170e55	-0.14751561
148	0xbe703485	-0.23457535
149	0x3d3c1232	0.04591579
150	0x3eabe330	0.33571768
151	0xbdac02fb	-0.08399006
152	0x3dc4d1b6	0.09610312
153	0x3c09387b	0.008375282
154	0x3e53c7d8	0.20681703
155	0xbd9deb99	-0.07710952
156	0x3e85a976	0.2610585
157	0x3e4d7f17	0.20068012
158	0x3e88809b	0.26660618
159	0x3e09cc05	0.13456734
160	0xbe863a37	-0.2621629
161	0x3e8bde66	0.27318114
162	0xbd69f254	-0.057115868
163	0xbe973ea3	-0.29539976
164	0x3e771600	0.24129486
165	0xbde0c6cd	-0.10975418
166	0xbe3eb410	-0.18623376
167	0x3d7830fb	0.060593586
168	0xbdef5529	-0.11686165
169	0x3e743a67	0.23850404
170	0x3e7ca51b	0.24672358
171	0xbe21a63b	-0.15786068
172	0x3e9e2b8c	0.308926
173	0xbe91d5f9	-0.2848356
174	0xbe1efb0a	-0.15525451
175	0xbe5c6d0e	-0.21525976
176	0xbe243c45	-0.16038616
177	0xbdaf9653	-0.08573594
178	0xbd52c8c6	-0.051461004
179	0xbe127e55	-0.14306004
180	0xbdb18efb	-0.086698495
181	0xbe861f51	-0.26195768
182	0x3e9721a2	0.29517847
183	0x3ea4f6ce	0.32219547
184	0x3dc55201	0.09634782
185	0xbe45c92b	-0.1931502
186	0x3e8f2fdd	0.27966204
187	0x3e15eafa	0.14640418
188	0x3e09cf1a	0.13457909
189	0x3e15ee51	0.14641692
190	0xbdd284e3	-0.102792524
191	0x3c664a20	0.014055759
192	0xbddea8c2	-0.10872032
193	0x3e3302bb	0.1748151
194	0x3e65099e	0.2236695
195	0xbe2fc8c8	-0.17166436
196	0x3e1f40d8	0.1555208
197	0xbe3df730	-0.18551326
198	0xbd17993f	-0.03701138
199	0x3e10aea5	0.14129122
200	0x3e760c91	0.24028231
201	0x3e09c296	0.13453135
202	0x3e91fe18	0.2851417
203	0xbd634fbc	-0.055495963
204	0xbe8b8385	-0.2724878
205	0x3e09b9bc	0.13449758
206	0xbe97cb2c	-0.29647195
207	0xbe531608	-0.20613873
208	0x3e664fe2	0.2249141
209	0xbd4cef05	-0.050032634
210	0xbdd925bb	-0.106029
211	0xbd2a8ecd	-0.04164009
212	0x3e3d4e5a	0.1848692
213	0xbe845de5	-0.25852886
214	0xbe92d5dc	-0.28678787
215	0x3e7543ed	0.23951693
216	0x3ea3fd9c	0.32029426
217	0x3d6c9a73	0.05776448
218	0xbccbb85a	-0.02486818
219	0xbe0e937b	-0.13923447
220	0xbccf732d	-0.025323475
221	0x3e6d5453	0.23176698
222	0xbd96ce19	-0.07363529
223	0x3e972f64	0.29528344
224	0xbe33d74f	-0.17562602
225	0x3d26b746	0.040702127
226	0xbe0a0ff3	-0.13482647
227	0xbd6740dc	-0.05645834
228	0x3d89e657	0.06733387
229	0x3ea23430	0.3168044
230	0xbda92095	-0.08258168
231	0x3ca74414	0.020418204
232	0x3e69cf6c	0.22833031
233	0xbdd3b4fc	-0.103372544
234	0xbe8f17d6	-0.27947873
235	0xbe815a56	-0.25264233
236	0x3c3187b4	0.010835577
237	0xbdeaa915	-0.11458031
238	0xbe64d027	-0.22345029
239	0xbd241537	-0.040059295
240	0xbd50ece4	-0.051007167
241	0x3e488e3e	0.19585511
242	0x3d1306bb	0.03589509
243	0x3c4b2bc6	0.012400573
244	0x3e2eb5b0	0.17061496
245	0xbd7816ba	-0.06056855
246	0x3e77c32a	0.24195543
247	0x3eb868af	0.36017367
248	0xbe9a1911	-0.3009725
249	0x3eb6d9d6	0.3571307
250	0xbde6f774	-0.11277667
251	0xbd6a0fc4	-0.05714394
252	0x3e85fa70	0.2616763
253	0x3d426474	0.04745908
254	0xbd71a078	-0.058990926
255	0xbe280eab	-0.16411845

linear2.weight f4 [3, 256]
0	0x3b19991a	0.0023437203
1	0x3ce6d0c9	0.028175728
2	0xbd0b1f1c	-0.033965215
3	0x3bd46856	0.0064821644
4	0xbd9fa3c8	-0.07794911
5	0xbdad6d9b	-0.08468171
6	0xbd18f4b6	-0.03734275
7	0xbd5e4401	-0.054264072
8	0x3d669dc2	0.056302793
9	0xbda56c80	-0.08077335
10	0xbd10bd1d	-0.035336602
11	0xbc04d10f	-0.008106484
12	0xbd937908	-0.07200819
13	0xbc88b5a8	-0.016688183
14	0xbd24e38d	-0.04025607
15	0xbba8dfa4	-0.005153613
16	0xbd300de6	-0.042982005
17	0xbc3e7bce	-0.011626197
18	0xbc1bd4fd	-0.00951123
19	0xbd764cb3	-0.06013174
20	0xbd93a8df	-0.07209944
21	0x3d39f5c6	0.045400403
22	0xbd6016a2	-0.054709084
23	0xbd847094	-0.06466785
24	0xbd5f8a7f	-0.05457544
25	0x3bb74869	0.0055933488
26	0xbb889851	-0.004168548
27	0x3a7cd79e	0.00096451666
28	0x3ce0a14e	0.027420666
29	0x3dfe2fa5	0.12411431
30	0x3d0e6c12	0.034771033
31	0x3cd6b394	0.026208676
32	0xbd4eb442	-0.050464876
33	0x3bf50764	0.0074776877
34	0xbc4737e7	-0.012159324
35	0xbd418574	-0.04724641
36	0xbde6d5bb	-0.112712346
37	0x3d4c5b6f	0.049891885
38	0xbc91836e	-0.017762866
39	0xbd7a2a89	-0.06107572
40	0xbab0da25	-0.0013492747
41	0xbce8e3ed	-0.028428996
42	0xbd099965	-0.033593554
43	0xbc23e15d	-0.010002461
44	0x3aa62c80	0.0012678057
45	0x3ce015bd	0.027354116
46	0xbd9bb24b	-0.07602366
47	0x3c56599d	0.013082889
48	0xbdbe3db3	-0.09289112
49	0xbd08bdd1	-0.033384148
50	0xbcc683c7	-0.024232758
51	0x3cc6d43e	0.024271127
52	0xbcbe15d8	-0.023203775
53	0xbcf791c4	-0.030220874
54	0x3d7be2db	0.061495643
55	0x3ce2e37c	0.027696364
56	0x3b4435b7	0.0029939243
57	0xbdb4b238	-0.08823055
58	0xbda77ef8	-0.08178514
59	0xbd03c21b	-0.032167535
60	0x3c140e8f	0.009036674
61	0xbc97b9fe	-0.018521305
62	0x3b294238	0.0025826823
63	0xbd93e61e	-0.07221626
64	0x3ccd1381	0.025033714
65	0xbab9ba24	-0.0014169854
66	0x3c115558	0.008870445
67	0xbd0bd00c	-0.034133956
68	0x3d2046e2	0.0391301
69	0xbb8730b8	-0.004125681
70	0xbd415879	-0.047203515
71	0xbd6c182b	-0.057640236
72	0x3a344a14	0.00068774936
73	0xbd7dcf87	-0.06196549
74	0xbdc71047	-0.097199015
75	0xbd87cc06	-0.06630711
76	0x3bf61473	0.007509762
77	0x3c9eb2a3	0.01937229
78	0xbcf2d813	-0.029644048
79	0x3d70c765	0.058783907
80	0xbd7ce129	-0.061738167
81	0x3d0da860	0.034584403
82	0xbc45f6b9	-0.012082749
83	0xbd92c6bf	-0.07166814
84	0xbcdc4521	-0.026888432
85	0xbc903ec1	-0.017608048
86	0x3c964537	0.018343551
87	0xbc823fba	-0.015899528
88	0x3c379b86	0.011206513
89	0xbcc9c06d	-0.024627889
90	0xbcc029ad	-0.023457373
91	0xbb95e2d1	-0.0045741578
92	0x3d2fb0b6	0.042893134
93	0x3ccd1e44	0.025038846
94	0xbdba9376	-0.09110157
95	0xbdb7a9ca	-0.089679316
96	0x3cb8c2f6	0.022553902
97	0x3c8270d0	0.015922934
98	0x3d0189b2	0.031625457
99	0x3df243af	0.11829316
100	0xbd1057dc	-0.03524004
101	0x3bbd7de4	0.0057828296
102	0xbd9f2174	-0.077700526
103	0xbd9b97c1	-0.07597304
104	0xbdce4c1f	-0.10073113
105	0x3bec3822	0.00720884
106	0xbde48107	-0.111574225
107	0x3b8c384d	0.0042791725
108	0xbb69c9d0	-0.0035673268
109	0x3b7c3493	0.0038483485
110	0xbdb7d887	-0.08976846
111	0xbd0cbf68	-0.034362227
112	0x3c5f4f31	0.013629721
113	0x3ca54ee5	0.020179221
114	0xbc00f206	-0.007870203
115	0xbcfc5035	-0.030799964
116	0x3cc7b712	0.024379287
117	0xbc1ce7b2	-0.009576725
118	0xbcbf520e	-0.023354556
119	0x3c0fe877	0.008783451
120	0xbc63660c	-0.01387931
121	0xbd2ef31d	-0.04271232
122	0x3ca7b74e	0.020473149
123	0xbda82b4d	-0.08211384
124	0xbda73744	-0.08164838
125	0xbd1c1aaa	-0.038111366
126	0x3c053328	0.008129872
127	0x3cc617a6	0.024181198
128	0xbd9334db	-0.07187816
129	0xbdaca2e7	-0.08429509
130	0x3c5f24b3	0.01361959
131	0xbd73b47e	-0.059498303
132	0xbd1130d2	-0.03544695
133	0xbc67eb71	-0.014155255
134	0x3d207545	0.039174337
135	0xbd19a9e5	-0.03751554
136	0xbb41d8ec	-0.0029578758
137	0xbc8ecac3	-0.017430669
138	0x3c359de5	0.011085008
139	0xbd97acf1	-0.07406033
140	0x3b961404	0.004580023
141	0xbd250267	-0.040285494
142	0x3c09a1a9	0.008400359
143	0xbccc6ea0	-0.024955094
144	0xbdc52655	-0.09626452
145	0xbd158cba	-0.03651116
146	0x3bc42035	0.0059852847
147	0xbdbf7eec	-0.0935038
148	0x3bd1dfa6	0.006404835
149	0xbdcb58e1	-0.09929062
150	0xbd89e740	-0.067335606
151	0x3d39b29c	0.04533635
152	0xbd7a8e37	-0.061170783
153	0xbbb65a6d	-0.005564979
154	0xbcdc925a	-0.026925255
155	0xbde8038b	-0.11328801
156	0x3cc64adc	0.024205618
157	0x3b129772	0.00223681
158	0xbca7ee60	-0.020499408
159	0xbd4c86b1	-0.04993314
160	0xbb9fdd40	-0.00487867
161	0x3c22c00c	0.009933483
162	0x3bfed152	0.007776418
163	0xbc032c50	-0.00800617
164	0x3c88f7a7	0.016719652
165	0xbd9b39b5	-0.07579366
166	0x3d0c3079	0.034225915
167	0x3c5ec2d0	0.013596252
168	0x3c8b2d4a	0.016989369
169	0xbd38a663	-0.045080554
170	0xbd4626b2	-0.048376746
171	0xbdb8fc83	-0.09032538
172	0xbd30b043	-0.043136846
173	0xbc1c9bbb	-0.009558613
174	0xbc297b70	-0.010344371
175	0x3c9f8f9c	0.019477658
176	0xbce0c86f	-0.027439324
177	0xbc2a5f6e	-0.010398729
178	0xbd44ef0d	-0.04807954
179	0xbcdfcd0a	-0.02731945
180	0xbdb48ea1	-0.08816267
181	0x3c957ff3	0.018249488
182	0xbd95edd7	-0.07320755
183	0xbc933f94	-0.017974652
184	0xbd85182f	-0.06498753
185	0x3d273455	0.040821392
186	0xbb7c6780	-0.003851384
187	0xbcf9ec35	-0.03050814
188	0xbd301f0b	-0.042998355
189	0xbbde150a	-0.0067774104
190	0xbd140221	-0.036134843
191	0x3d0740fc	0.03302096
192	0xbd75c59d	-0.06000291
193	0x3b8e3765	0.0043400996
194	0xbc231025	-0.00995258
195	0xbd801a64	-0.062550336
196	0xbc57bda1	-0.01316777
197	0xbd78fd65	-0.06078853
198	0x3d3674fc	0.04454516
199	0xbd7cb5c0	-0.061696768
200	0xbd98d075	-0.07461635
201	0x3cfd016b	0.030884465
202	0xbd8043bb	-0.062629186
203	0x3d3c0664	0.045904532
204	0x3c818bf8	0.015813813
205	0xbd613d97	-0.054990377
206	0x3cc41964	0.023937888
207	0xbd35f626	-0.0444242
208	0xbd1a7682	-0.037710674
209	0xbd7810a0	-0.06056273
210	0x3cb196af	0.021678297
211	0x3c7a4c5b	0.015276994
212	0x3b2bcca5	0.0026214507
213	0x3d14bd9c	0.036313638
214	0x3c945abb	0.01810967
215	0xbd73f006	-0.059555076
216	0xbd340f14	-0.043959692
217	0x3d8571a2	0.06515814
218	0x3cb3745b	0.021906069
219	0xbbf8d346	-0.007593545
220	0x3c544805	0.012956624
221	0xbd928f99	-0.07156295
222	0xbde5f547	-0.112284236
223	0xbc8ec5a2	-0.017428223
224	0xbc33fa19	-0.010984921
225	0xbd25d6c9	-0.04048804
226	0xbcabe56f	-0.020983426
227	0xbd71c0bf	-0.059021708
228	0xbdb12ff6	-0.08651726
229	0x3c26abda	0.010172809
230	0xbd0ace38	-0.03388807
231	0xbcad23b0	-0.021135181
232	0x3ccbaae8	0.024861768
233	0xbd86a8c2	-0.06575157
234	0x3cf5b014	0.029991187
235	0xbc883cec	-0.016630612
236	0xbd163a2b	-0.036676567
237	0x3d2084a2	0.03918899
238	0x3bf12d89	0.0073601645
239	0xbd8947ee	-0.067031726
240	0xbde5e6cc	-0.11225662
241	0xbcadfc93	-0.0212386
242	0xbd99b62e	-0.07505451
243	0xbd3aa8ad	-0.045571018
244	0xbbb4751c	-0.0055071246
245	0xbd74116f	-0.05958694
246	0xbda7cac9	-0.08192975
247	0xbdbd2469	-0.0923546
248	0x3ba5eaf0	0.005063407
249	0xbd5f9dd5	-0.05459388
250	0xbce407c5	-0.027835736
251	0xbda90011	-0.08251966
252	0x3c8b23d9	0.016984867
253	0xbd969111	-0.07351888
254	0x3cddee25	0.027091095
255	0x3cf402bd	0.029786462

linear2.bias f4 [3]
0	0xbdb859c5	-0.09001497
1	0xbd845af4	-0.064626604
2	0xbd158b96	-0.036510073
